ml/weights/model_weights.pth (torch, 9567 bytes, 4 tensors)

linear_relu_stack.0.weight f4 [50, 8]
00000000: cae1 d4be c8f8 033f 635f a2be f409 303f
00000010: c216 49bf 212b a13e 629e 08bf b848 213f
00000020: 5ae5 f33c e2aa 8ebd c192 a7bc bc72 a3be
00000030: 0c58 d0bd 82bf 7a3c d86a 10be 7e24 4cbe
00000040: 99ea 93be 66e4 c93e 0cdb 2dbe b9d1 af3e
00000050: 64ee a0be a396 2dbe 5bc5 273e 3198 84bc
00000060: 7b94 99be 1b09 0bbe 0137 d13e e4b9 7ebe
00000070: b698 793e 8394 ba3e 80c0 78bd 0d12 b0be
00000080: 1c3d 02bd 0a0e 20be 06d8 1c3f 8c7b 92be
00000090: 3275 e33e f1b1 a4be 24f7 eb3e d09d a23c
000000a0: 62e9 4c3e 8df2 bd3d b95b 083e 5153 ed3d
000000b0: 0272 6b3f b456 cabd 1a03 7abe 7893 9cbd
000000c0: 7eec 963c 86c8 3fbe 6d5f afbd 1a95 aebd
000000d0: e367 9abe 32ca f7bd deb5 9abd b980 95be
000000e0: d98a 923e e41d 143f 20df c03e a7b7 f63e
000000f0: 92b1 90bf 56c7 7d3e dc5f c13e f609 9a3f
00000100: 98b1 f53e 7ed4 94be 3b07 123f c827 7abe
00000110: cdae 073e 6834 91be 9c15 b43e 7310 3e3f
00000120: 3850 0b3f 410d 673e 5f1e a33e 06ae fd3e
00000130: 5d2e fc3d 4278 e43d 6e66 a5bf c215 e6be
00000140: 2214 25be 1130 fc3e df5f 66be 5798 cc3e
00000150: 071a ab3e 1d5f 3fbe da2a e5bc d987 063e
00000160: d2bf 683e bf49 da3e 4f38 fe3e c8f3 063f
00000170: 41af f2bd 1903 d53e 3551 9ebe fc86 58be
00000180: 10d5 33bf 0c6e ef3e bea9 4dbf 63d4 d53e
00000190: b9e7 843e a88f 463f 65d9 dc3f 5353 27be
000001a0: 8098 553e 1f7b a8be 4188 8b3d ddc8 1b3d
000001b0: d518 89bd e87b 5fbe 63bf 9dbe 0d8b 77be
000001c0: 70d4 113f 9f2a f03e b59e 1f3d ca89 cebd
000001d0: d2a2 3f3e cc62 b93e 3f2d 013f 5d77 72be
000001e0: e3d7 1d3f f07a b6be a5ec 2c3f 4654 9fbe
000001f0: c260 783f 5d00 babe 8010 20bf 5c09 143f
00000200: 2179 4dbe f392 a7be 88c8 803e f7a6 b63b
00000210: a61a 0ebe 8dc8 b1be d4e6 a3be 6158 673e
00000220: 307c 7abe 4224 87be 9720 c2bd 31f4 66be
00000230: 26a6 7a3e d9c5 39be 9c25 603c 5521 68be
00000240: 7dee 9a3e 0df5 353d 1b45 c43d 7e8b 60be
00000250: 3d4b 563f d8ab 88be e219 8c3f c619 8f3f
00000260: f5f8 bb3e 8f45 213e 2575 203e 70e6 9f3d
00000270: 367e dabd 0169 5d3e f311 a53e bd69 a13f
00000280: 8141 59be 4011 043c fb10 86be 229e 10be
00000290: 4725 37be 71ad 85be b87d 44bd 4230 183e
000002a0: 5c6c 363e db80 4d3d 193f 0a3e 1430 f5bd
000002b0: ea69 00bf 117b 14be 76f0 d93f 175e 5e3f
000002c0: ccc9 6a3e 0095 adbe f12f 3bbe 6363 c73d
000002d0: 0411 94be 10e1 abbe 2fbf 80be ff81 42be
000002e0: 0024 f13e ba8c 1e3f 76cc c63e 483b 163f
000002f0: 900d bcbe e13d e33e 0d7e 5abf 8a8c a13e
00000300: 25f0 82be 0e07 adbe 39ca dbbd 96a1 a7be
00000310: bc37 e13d 12b3 7bbe 9470 cf3e 5126 99bd
00000320: d3d7 1bbe 7641 9d3e b00b 743e 6928 c33e
00000330: 6d6e 3f3f 23a4 22be e69a 463f fe2b 1dbf
00000340: 76f2 09bd 3f8e 50bc a389 b43e f15b 0cbd
00000350: e4b7 fabd b16e 473e 5b6f adbe 1439 0e3f
00000360: d906 963e 90a3 08be cf8d be3e 50fe 80bd
00000370: 362f e23d 88fb 58be f92f 10be 44f1 073f
00000380: b63a f8bc b3a2 a13e e2fd b4bd 49d6 b03c
00000390: de61 35bf 056f a23e bccc b83f b7e4 25bf
000003a0: e2ea a7be c26d ff3e 4b9f 15bf 248d 4a3f
000003b0: a7ed 27bf 3108 1c3f 71c5 09bf d528 423f
000003c0: ed37 6d3e 6a36 6f3f 3563 bc3e 0690 b43f
000003d0: 2d5c 503f f873 a73f d18a bb3f 31d5 02bf
000003e0: 8a6a ef3e 5c2a 593f 4323 dd3e ab7f a83e
000003f0: 0430 e83d 7ac3 283f 01c3 0fbe abdf 603f
-0.41578513 0.51551485 -0.317134 0.6876519 -0.7855035 0.31478217 -0.53366673 0.63001585
0.02977245 -0.06966187 -0.02045572 -0.31923473 -0.101730436 0.015304448 -0.14103258 -0.19935796
-0.2888992 0.39432067 -0.16978091 0.34339693 -0.31431878 -0.16951995 0.16383879 -0.016185852
-0.29996094 -0.13577692 0.40862277 -0.24875599 0.24374661 0.3644143 -0.060730457 -0.34388772
-0.03179656 -0.15630355 0.61267126 -0.28609884 0.4442535 -0.3216701 0.4608699 0.019850641
0.20010903 0.092747785 0.1331624 0.11588157 0.9197084 -0.098798186 -0.24415246 -0.07645315
0.018423315 -0.18728837 -0.08563123 -0.085245326 -0.30157384 -0.120991126 -0.0755422 -0.2919977
0.28621557 0.5785811 0.3767023 0.4818699 -1.130419 0.24783072 0.37768447 1.203429
0.47987056 -0.2906837 0.5704228 -0.24429238 0.13250275 -0.28360295 0.35172737 0.7424385
0.5441928 0.2256365 0.3185911 0.49546832 0.123135306 0.1115575 -1.2921884 -0.44938475
-0.16120961 0.49255422 -0.2249751 0.39959976 0.33418295 -0.18688627 -0.027974535 0.1313776
0.22729424 0.4263439 0.49652335 0.5271573 -0.11849833 0.41603926 -0.3092133 -0.21145242
-0.7024698 0.46763647 -0.8033713 0.417636 0.2595804 0.7756295 1.7253844 -0.1634038
0.20858955 -0.32906434 0.06813098 0.038033355 -0.066941895 -0.2182461 -0.3081008 -0.24174137
0.5696478 0.46907517 0.038969714 -0.10084875 0.18714455 0.3620819 0.50459665 -0.23678346
0.6165754 -0.3564067 0.6754859 -0.31118983 0.9702264 -0.36328402 -0.62525177 0.5782678
-0.20065738 -0.327293 0.25152993 0.005574103 -0.13877353 -0.3472332 -0.32012045 0.22592308
-0.24461436 -0.2639485 -0.09478872 -0.22554089 0.24477443 -0.18141879 0.013680842 -0.22668965
0.30260077 0.04442315 0.09583493 -0.21928212 0.83708555 -0.26693606 1.0945399 1.117974
0.36713377 0.15749191 0.15669687 0.07807624 -0.10668604 0.21622087 0.32240257 1.2610394
-0.21216394 0.008060753 -0.2618483 -0.14122823 -0.17885314 -0.26108888 -0.047971457 0.14862159
0.17814773 0.050171714 0.13500632 -0.11972061 -0.5016161 -0.14500071 1.7026508 0.8686232
0.22928542 -0.3390274 -0.18280007 0.097357534 -0.28919232 -0.33570147 -0.25145862 -0.18994902
0.47097778 0.6193348 0.38827866 0.58684206 -0.36729097 0.44383147 -0.8534859 0.31552535
-0.2557384 -0.33794445 -0.1073193 -0.32740468 0.109969586 -0.24580029 0.40515578 -0.074780114
-0.15219049 0.30714005 0.23832583 0.38116768 0.7477787 -0.15882926 0.77580106 -0.6139525
-0.033678494 -0.012729227 0.35261258 -0.03426737 -0.122421056 0.19475819 -0.3387402 0.55555844
0.293021 -0.13343644 0.37217566 -0.06298506 0.11044161 -0.21189702 -0.140808 0.5310252
-0.030301433 0.31569442 -0.08837487 0.021586554 -0.7085246 0.31725326 1.443748 -0.64802116
-0.3279639 0.49888426 -0.58446187 0.79121614 -0.65597004 0.6095 -0.53816897 0.75843555
0.23165865 0.93442404 0.3679444 1.4106452 0.8139065 1.3082266 1.4651738 -0.51106554
0.4676097 0.8483026 0.43190965 0.32909903 0.11337283 0.65923274 -0.14039232 0.8784129

linear_relu_stack.0.bias f4 [50]
00000000: 8c3b 963f 6519 91be f3fd db3e 55c8 1fbd
00000010: ed17 8a3c ed13 3b3e 04d3 4cbe 0f2f b83e
00000020: 95c2 573e 90e2 8e3f d8d2 623d eea0 653e
00000030: ab3f 353f 641b 91bd bcb4 32be 3299 243f
00000040: f82e c3bd f668 84be bbaa 653d 6670 26be
00000050: 45a9 7bbe 1a39 e83e 50e0 003e 0fd2 073f
00000060: 64da bc3e 5a00 093f 0008 a3bc 3d36 1d3e
00000070: 3b3a 8f3f ad7b 913f bf7c b4bd e198 a9bd
00000080: 941d 943e 4499 fb3e 7a34 ba3e 7577 f83e
00000090: 610c e6ba 5276 a53e 57e8 a8be ae8b 08be
000000a0: 76ba 933f e9d7 6e3f cb95 acbe 4f4e 883f
000000b0: c5ff 433f 023f 95bd 611c f73e c324 93bd
000000c0: f27b b8bd 1033 893f
1.1736922 -0.28339687 0.42967185 -0.03900941 0.016857112 0.1826932 -0.20002371 0.35973403
0.21070321 1.1162891 0.055376858 0.22424671 0.70800275 -0.070853025 -0.17451757 0.6429626
-0.09530443 -0.2586133 0.056071024 -0.16253814 -0.2457629 0.45356065 0.12585568 0.530549
0.3688537 0.5351616 -0.019901276 0.15352722 1.1189646 1.1365868 -0.08812856 -0.082811125
0.28928816 0.4914037 0.3636816 0.48528638 -0.0017551297 0.32316834 -0.3298976 -0.13334534
1.1541278 0.932982 -0.33708033 1.0648898 0.7656215 -0.072874084 0.4826384 -0.07184746
-0.09008016 1.0718708

linear_relu_stack.2.weight f4 [30, 50]
00000000: 16f3 f83e a8b5 d8bc 5ed3 3f3e 165f 9d3d
00000010: 5e6e 14bd a2fc 29bd 38c8 d83d 55ab 02be
00000020: d71e 53be 0461 c5bc 0822 293e 572b 6dbe
00000030: e9bc 3d3f 7ce6 023d bd42 27be fb21 6fbe
00000040: fecb 993d 8fed 71bd 8afb 883c d663 03be
00000050: 8e98 853d 5d21 863d b6f2 c0bb b259 81be
00000060: 3315 10bd a70f 5a3d f9a3 dabd 8a17 a3bd
00000070: 5245 0e3e ff8e 193f fc79 e9bc ec68 2dbe
00000080: f50b 7dbf 9497 b73e 32ae c5be f85e 04bf
00000090: 78a3 2e3e 685e 2bbe e15b 90bc e57c febe
000000a0: b3a3 13be e159 75bd 816d ee3d 60cf 373e
000000b0: c232 9dbb 04fe b2be ffd5 cd3e 8729 31be
000000c0: 6de6 bebe df2f 6b3c b869 b93e 879f 9b3d
000000d0: 698d 973e 6e8f 3ebe f3c6 57be 1536 ae3d
000000e0: 7f27 9fbb 82d4 e6bd 5e87 d8bd 3e68 4ebe
000000f0: 5758 473e 27bb 48be 977a 1a3f eab3 b43c
00000100: c59c 76be 3e3b b5be 7387 9c3d 5025 8d3d
00000110: 4e9d 9fbd 2b82 263d b794 89bd 0d13 363d
00000120: d1bf a0bd bcdd 3bbe 69ba 5b3e 2dfa 143e
00000130: 0f1c 15be 4e8d 6cbe 6753 aa3e 1617 1a3f
00000140: b882 b0bd f661 6dbe 01d5 7bbf ca6f cb3e
00000150: c7bb a7be 13ff 1dbf df27 e83d 2d8c 35be
00000160: ca5d c93d e29c dbbe 411e 32bd 7aaf b2bc
00000170: f2b9 c1bd 88a6 5a3e 6c27 f3bd 8468 87be
00000180: dd74 f13e b8a3 6fbd ddde 84be c1de c0bc
00000190: c0c4 a23e 2c9c 22bd 1f99 833e 874b c0bb
000001a0: f1ca 5cbe ee01 aebd ae29 e9bd ccc0 9e3d
000001b0: bf56 8dbe efc2 9bbb d888 5d3e 93f6 c6bd
000001c0: 0ed1 343f 5644 10be 657f 65be 24f5 8cbe
000001d0: 95fb 08be c1cc fa3d e29a dbbc 5ab8 14be
000001e0: 5aaa ebba d771 b33b a000 823d 75c4 5dbe
000001f0: 44bd 303e 0d98 d83d c915 93bd 436a 31be
00000200: 4049 8a3e a707 df3e 8aca fcbc e01e 1abe
00000210: a362 81bf f74e 043f 5fdf a4be 3505 28bf
00000220: bcdd 013e 350f 07be 8a42 9ebd 5be7 05bf
00000230: 3dd8 05be 2f2e 0f3d dada 953d 52a9 6c3e
00000240: 13bd d13b 8e14 9cbe 5d92 0d3f 81ea 56be
00000250: d724 1abe e28f 22be 9c0f d63e 2e43 d43c
00000260: 1af4 773e 4d7e 03bd 6189 1fbb 55e9 95bd
00000270: 078c 9f3d d801 a6bd 624a aebe bb5a 01be
00000280: 3d5e 643e 8049 0dbe aa72 2f3f 9765 ecbd
00000290: 3334 b8bd d2a3 29be b46a 633d 29c9 b43c
000002a0: e07b f73b a31f 93bd 004b f83c 9962 473d
000002b0: 2027 b9bd 024c 8ebc 4523 e13d 78c3 883d
000002c0: 1285 933c 6506 313a d100 9a3e 1865 063f
000002d0: 540a 83bd 039c 82be a692 8dbf ad7c da3e
000002e0: e049 b9be 17a7 04bf ed40 1e3e 8087 2cbe
000002f0: d1f2 a63c d051 ecbe a54f 72bd 8a47 fbbd
00000300: 8b6c 0bbd 75d5 cf3d b444 3dbe 7f6d 89be
00000310: 0219 ec3e a0bb 4ebe dfe2 4bbe a10b 03bc
00000320: 95de 033f d985 0a3d b14a 573d 7748 09be
00000330: 75e9 2cbe 0490 b0bd a0e7 9dbd 9194 38be
00000340: 7736 7ebe 0c82 e0bd 493c 283e d8cf 14be
00000350: 873f 413f 39eb e53d 8c79 8bbd 7ddb 99be
00000360: 4973 cd3d 514d d1bb 990b f03d 790d 5dbe
00000370: ef64 36bd bc2e c23d 8b5d 17bb 1838 9bbd
00000380: a5b3 2f3e a5fd 0d3e a8ca 77bd b8ca 11be
00000390: 6a8b 8a3e 9716 c23e cf51 4dbe 07c1 8fbe
000003a0: 98c5 8cbf 1df0 103f c696 9dbe a5d0 27bf
000003b0: 65e1 473c 64b4 873c 138b bcbd 72c4 c9be
000003c0: 7a55 03bd 7b80 fa3c 6461 9d3d 7fe8 483e
000003d0: d4a2 30be 5b12 e3bd 8355 c33e 7a98 18bd
000003e0: b4cc 16be 1131 f3bc 1bbd bbbd 5e73 e2bd
000003f0: ce44 393d 0a30 d5bd c79f a03e f2b2 e03d
0.4862296 -0.026453808 0.18732974 0.07684152 -0.036238067 -0.041500695 0.10585064 -0.1276067
-0.20617233 -0.024094112 0.16516888 -0.23161064 0.7411638 0.03195809 -0.16334052 -0.23352806
0.075096115 -0.059064444 0.016721506 -0.12831053 0.06523238 0.06549332 -0.0058883084 -0.25263745
-0.035176467 0.053237583 -0.106758066 -0.07963474 0.13893631 0.5998382 -0.02850055 -0.16934556
-0.9884637 0.35857832 -0.38609463 -0.5170741 0.17054546 -0.16735232 -0.017621936 -0.49704662
-0.14417915 -0.05990017 0.1164198 0.17950201 -0.0047973106 -0.34959424 0.4020233 -0.17300998
-0.37285176 0.014354675 0.3621347 0.07598787 0.29600075 -0.18609402 -0.21071987 0.08506409
-0.004857003 -0.112710014 -0.10572694 -0.20156953 0.19467293 -0.19602643 0.6034331 0.022058446
-0.2408324 -0.3539676 0.076430224 0.068918824 -0.07793675 0.04065148 -0.06717818 0.044451762
-0.07849086 -0.18346304 0.21457829 0.1454856 -0.14561485 -0.23100778 0.33266756 0.60191476
-0.086186826 -0.231819 -0.98371893 0.39733726 -0.3276045 -0.6171734 0.1133573 -0.17729254
0.09832342 -0.4289313 -0.043485884 -0.02181219 -0.094592944 0.21352589 -0.118727535 -0.26446927
0.47159472 -0.058505744 -0.2595128 -0.023543717 0.31790733 -0.03969972 0.2570276 -0.0058683786
-0.21561791 -0.08496462 -0.11384903 0.07751617 -0.27605245 -0.0047534625 0.21634233 -0.09714999
0.7063149 -0.14088568 -0.22411878 -0.27530777 -0.13377221 0.12246085 -0.026807252 -0.1452345
-0.0017979846 0.0054762173 0.063477755 -0.21656974 0.17259699 0.105758764 -0.071818896 -0.17325692
0.2700901 0.43560526 -0.030858297 -0.1505084 -1.0108227 0.5168299 -0.3220167 -0.65632945
0.12682241 -0.13189395 -0.07727535 -0.52306145 -0.1307077 0.034956153 0.07317133 0.23111466
0.006400713 -0.30484432 0.5530146 -0.20987894 -0.15053116 -0.158752 0.41808784 0.02591094
0.24214211 -0.03210287 -0.0024343359 -0.07319895 0.0779038 -0.081058204 -0.34041125 -0.12632267
0.22301574 -0.1379757 0.6853434 -0.11542814 -0.08994331 -0.16566399 0.055521682 0.022068577
0.007552609 -0.071837686 0.0303092 0.048678014 -0.090406656 -0.017370228 0.10993055 0.06677908
0.018007789 0.0006752967 0.30078748 0.52498007 -0.06398454 -0.25509652 -1.1060379 0.42673245
-0.36189175 -0.5181746 0.15454455 -0.16848564 0.020379456 -0.46156168 -0.059157986 -0.12269504
-0.03403906 0.101481356 -0.1848324 -0.2684135 0.4611283 -0.20188761 -0.19910763 -0.007998378
0.5151151 0.033819053 0.052561466 -0.1340655 -0.16885932 -0.08621219 -0.077101946 -0.18025424
-0.24825464 -0.109623045 0.16429247 -0.14532411 0.7548756 0.11226506 -0.068102926 -0.3005027
0.100317545 -0.0063873907 0.11720962 -0.2158717 -0.04452985 0.0948157 -0.0023096527 -0.075790584
0.17158373 0.13866289 -0.060496002 -0.14237487 0.2705949 0.3790786 -0.20050739 -0.28076956
-1.0997801 0.56616384 -0.30779094 -0.6555274 0.012199734 0.01656551 -0.09206214 -0.39407688
-0.03206394 0.030578842 0.076845914 0.1961994 -0.17249614 -0.110874854 0.38151178 -0.037254788
-0.14726526 -0.029686483 -0.091669284 -0.11057161 0.045231633 -0.10409553 0.313719 0.10971631

linear_relu_stack.2.bias f4 [30]
00000000: 15ad 853e 5bc2 613e 8a54 943e dab9 283e
00000010: 6188 843e efe8 de3d 66cb c93d d6a7 123e
00000020: 95e5 f93c a830 373e c2c5 3c3e 9efb 253e
00000030: e6be 9c3e 0b12 683e 0672 9a3e 80d2 ba3d
00000040: e459 233e 6152 763e 724c a43e 6ce5 6c3e
00000050: f423 773e 5272 5e3e e805 283e 1a55 923e
00000060: 1304 883e 6a1d 593e e282 113f 4721 f33e
00000070: 137d f43e 3c60 0f3f
0.26108614 0.22046797 0.28970748 0.16477147 0.258853 0.10884272 0.09853248 0.14321837
0.030504981 0.17889655 0.18434814 0.16209266 0.30614394 0.22663133 0.30165118 0.09122181
0.1595226 0.24054863 0.32089573 0.23134392 0.24134809 0.21723297 0.16408503 0.28580552
0.26565608 0.21202627 0.56840336 0.47486326 0.47751674 0.56006217
