backend/weights/model_weights.pth (torch, 9567 bytes, 4 tensors)

linear_relu_stack.0.weight f4 [50, 8]
-0.42891636 0.5277192 -0.33371526 0.69922495 -0.7988581 0.32873377 -0.5392087 0.6430719
0.02977245 -0.06966187 -0.02045572 -0.31923473 -0.101730436 0.015304448 -0.14103258 -0.19935796
-0.29493055 0.39853227 -0.17867889 0.34744737 -0.31411785 -0.16528516 0.16744335 -0.014198277
-0.29856306 -0.13337448 0.4111492 -0.24696375 0.24609618 0.36763385 -0.06010269 -0.34404653
-0.025312964 -0.17047109 0.62051505 -0.29861113 0.44930577 -0.33474603 0.4665531 0.023037966
0.20248434 0.08934631 0.13419437 0.111416094 0.93908817 -0.100021206 -0.24690068 -0.0789539
0.018423315 -0.18728837 -0.08563123 -0.085245326 -0.30157384 -0.120991126 -0.0755422 -0.2919977
0.2972394 0.59461385 0.38933235 0.5015722 -1.1458719 0.26446566 0.38834986 1.2262291
0.4913535 -0.3067013 0.5868964 -0.25978103 0.13602506 -0.29967916 0.3569835 0.7549924
0.5478112 0.22528236 0.32326603 0.4935362 0.12509552 0.11382577 -1.315915 -0.45841554
-0.16563752 0.50260305 -0.22653456 0.4088493 0.339443 -0.18327647 -0.02655463 0.1357471
0.23897065 0.4425315 0.50404376 0.5428687 -0.11603306 0.43196929 -0.30139658 -0.2100043
-0.7289628 0.4863953 -0.82800406 0.43293115 0.26572007 0.79337555 1.7553514 -0.16361879
0.208934 -0.32906434 0.068382554 0.038152512 -0.06688421 -0.21823405 -0.3081008 -0.24169934
0.57891303 0.48242384 0.051177513 -0.08726134 0.19227947 0.3741422 0.5112069 -0.23448324
0.62835485 -0.38189182 0.6923146 -0.33756104 0.99023294 -0.38775548 -0.63092655 0.5894427
-0.19999458 -0.3273703 0.25465518 0.00475898 -0.1376597 -0.3473641 -0.31957382 0.22931935
-0.24461436 -0.2639485 -0.09478872 -0.22554089 0.24477443 -0.18141879 0.013680842 -0.22668965
0.30413052 0.031790458 0.10230205 -0.22539872 0.8539851 -0.27735656 1.1128718 1.1379863
0.37268993 0.16561744 0.16857572 0.08951654 -0.10847231 0.2203989 0.32607973 1.2852538
-0.21216394 0.008060753 -0.2618483 -0.14122823 -0.17885314 -0.26108888 -0.047971457 0.14862159
0.17860897 0.040876094 0.14046377 -0.12508646 -0.5076352 -0.15233526 1.7312795 0.88470954
0.2293875 -0.33893847 -0.18280299 0.09767154 -0.28922468 -0.3356503 -0.2513799 -0.18997996
0.480724 0.6371423 0.39627752 0.60556996 -0.37143674 0.46247688 -0.8568099 0.32094446
-0.25235304 -0.3446952 -0.10449514 -0.3339443 0.1196699 -0.25330907 0.40876123 -0.065214284
-0.15399648 0.30731222 0.23213005 0.37899753 0.7643117 -0.15786967 0.78863406 -0.62732095
-0.030450538 -0.013678514 0.35835043 -0.034376778 -0.12476455 0.19255312 -0.34089026 0.5616614
0.2984973 -0.14269169 0.3809021 -0.07314324 0.114211015 -0.21965744 -0.13869238 0.53959525
-0.03839687 0.31389126 -0.094949715 0.02054257 -0.7188158 0.3172625 1.4681504 -0.65983266
-0.34505197 0.5165635 -0.60261035 0.8078927 -0.663152 0.6290404 -0.5425216 0.77285826
0.2432489 0.9977513 0.37778652 1.4685853 0.82557136 1.3644613 1.4885002 -0.503965
0.4798072 0.87835073 0.4432969 0.35959038 0.11617788 0.6867088 -0.12940858 0.8912143
00000000: ed9a dbbe 9b18 073f badc aabe 6800 333f
00000010: f781 4cbf cb4f a83e 9509 0abf 5ca0 243f
00000020: 5ae5 f33c e2aa 8ebd c192 a7bc bc72 a3be
00000030: 0c58 d0bd 82bf 7a3c d86a 10be 7e24 4cbe
00000040: 2301 97be 6c0c cc3e 99f7 36be 9fe4 b13e
00000050: 0ed4 a0be 8340 29be 4576 2b3e e49f 68bc
00000060: 42dd 98be 5293 08be 2682 d23e 11e4 7cbe
00000070: a300 7c3e 813a bc3e 3d2e 76bd de26 b0be
00000080: 225d cfbc f98f 2ebe 13da 1e3f 8fe3 98be
00000090: 680b e63e d563 abbe 0ce0 ee3e 1eba bc3c
000000a0: 0e58 4f3e 33fb b63d 406a 093e 1f2e e43d
000000b0: 1568 703f ebd7 ccbd 88d3 7cbe 95b2 a1bd
000000c0: 7eec 963c 86c8 3fbe 6d5f afbd 1a95 aebd
000000d0: e367 9abe 32ca f7bd deb5 9abd b980 95be
000000e0: c32f 983e 9d38 183f 9256 c73e 0967 003f
000000f0: eeab 92bf 0b68 873e cbd5 c63e 13f5 9c3f
00000100: b092 fb3e f407 9dbe d83e 163f 0502 85be
00000110: 274a 0b3e 8c6f 99be 8bc6 b63e 2f47 413f
00000120: 5b3d 0c3f 6bb0 663e 2083 a53e c7b0 fc3e
00000130: 0a19 003e 7c1d e93d e76f a8bf 71b5 eabe
00000140: e29c 29be 98aa 003f adf8 67be b254 d13e
00000150: 79cb ad3e d4ac 3bbe 1889 d9bc 4a01 0b3e
00000160: b9b4 743e 7d93 e23e 0309 013f 71f9 0a3f
00000170: bea2 edbd 142b dd3e a750 9abe 5e0b 57be
00000180: 4e9d 3abf ce08 f93e 13f8 53bf 27a9 dd3e
00000190: 760c 883e a91a 4b3f 5baf e03f af8b 27be
000001a0: cbf2 553e 1f7b a8be 270c 8c3d cf45 1c3d
000001b0: 97fa 88bd bf78 5fbe 63bf 9dbe 0880 77be
000001c0: a533 143f 4200 f73e 839f 513d 13b6 b2bd
000001d0: e9e4 443e 918f bf3e 75de 023f 601c 70be
000001e0: dddb 203f 5387 c3be 883b 313f cdd4 acbe
000001f0: e87f 7d3f e387 c6be 6784 21bf b7e5 163f
00000200: 61cb 4cbe 149d a7be 2a62 823e 38f1 9b3b
00000210: aaf6 0cbe b5d9 b1be 2e9f a3be b1d2 6a3e
00000220: 307c 7abe 4224 87be 9720 c2bd 31f4 66be
00000230: 26a6 7a3e d9c5 39be 9c25 603c 5521 68be
00000240: ffb6 9b3e b636 023d bd83 d13d ecce 66be
00000250: c49e 5a3f ae01 8ebe 9572 8e3f 89a9 913f
00000260: 37d1 be3e 9e97 293e 1d9f 2c3e 7354 b73d
00000270: bb26 debd 40b0 613e ecf3 a63e 3283 a43f
00000280: 8141 59be 4011 043c fb10 86be 229e 10be
00000290: 4725 37be 71ad 85be b87d 44bd 4230 183e
000002a0: 45e5 363e b16d 273d bcd5 0f3e aa16 00be
000002b0: 61f4 01bf c6fd 1bbe 919a dd3f 537c 623f
000002c0: 8fe4 6a3e 5889 adbe b530 3bbe 0408 c83d
000002d0: 4215 94be 5bda abbe deb4 80be 1b8a 42be
000002e0: 7521 f63e c21b 233f e3e4 ca3e a206 1b3f
000002f0: f52c bebe c5c9 ec3e e557 5bbf d552 a43e
00000300: 6b34 81be e47b b0be 8c01 d6bd bffa aabe
00000310: 7e15 f53d bab1 81be 2749 d13e 118f 85bd
00000320: 41b1 1dbe 0758 9d3e 80b3 6d3e f70b c23e
00000330: eea9 433f 96a8 21be ece3 493f 1b98 20bf
00000340: 6873 f9bc d91b 60bc b579 b73e aace 0cbd
00000350: 8e84 ffbd a52c 453e 2b89 aebe 0bc9 0f3f
00000360: a3d4 983e c51d 12be 9a05 c33e 1fcc 95bd
00000370: 77e7 e93d e1ed 60be 6005 0ebe ea22 0a3f
00000380: 0946 1dbd 5bb6 a03e ff74 c2bd e448 a83c
00000390: 5004 38bf 3b70 a23e 5aec bb3f cbea 28bf
000003a0: a7aa b0be 813d 043f ac44 1abf 0ed2 4e3f
000003b0: 54c4 29bf cb08 213f b2e2 0abf 0ada 453f
000003c0: 3d16 793e a16c 7f3f 3c6d c13e 9afa bb3f
000003d0: a558 533f aba6 ae3f 2d87 be3f da03 01bf
000003e0: 4aa9 f53e 98db 603f d0f7 e23e 3b1c b83e
000003f0: abee ed3d 26cc 2f3f af83 04be 9f26 643f

linear_relu_stack.0.bias f4 [50]
1.2063739 -0.28339687 0.44423229 -0.036711 0.039513666 0.19028802 -0.20002371 0.3582607
0.23303805 1.1470518 0.06084531 0.22950937 0.7290634 -0.07048027 -0.17587768 0.68477917
-0.09079352 -0.2586133 0.06517019 -0.17229982 -0.2457629 0.46644914 0.12542073 0.53826576
0.39947814 0.5440294 -0.013553653 0.17070241 1.1529667 1.1677068 -0.11541007 -0.10019817
0.27941862 0.51329064 0.38271707 0.4866135 -0.0024160729 0.31448194 -0.3298976 -0.14979613
1.1975499 0.95248896 -0.33708033 1.1146774 0.8114142 -0.076211475 0.5038081 -0.092254676
-0.09843749 1.0889889
00000000: 766a 9a3f 6519 91be 6a72 e33e 465e 16bd
00000010: 15d9 213d ddda 423e 04d3 4cbe f26d b73e
00000020: 87a1 6e3e 98d2 923f ef38 793d 8104 6b3e
00000030: e6a3 3a3f f657 90bd 4719 34be b04d 2f3f
00000040: f4f1 b9bd f668 84be f377 853d 5d6f 30be
00000050: 45a9 7bbe 6cd2 ee3e 4b6e 003e c9cb 093f
00000060: 6688 cc3e 8345 0b3f 2410 5ebc 9dcc 2e3e
00000070: 6a94 933f 6b77 953f 1d5c ecbd b334 cdbd
00000080: f50f 8f3e 0467 033f 7ef3 c33e 6825 f93e
00000090: fa56 1ebb c703 a13e 57e8 a8be 2864 19be
000000a0: 5149 993f 51d6 733f cb95 acbe c0ad 8e3f
000000b0: d7b8 4f3f c314 9cbd 91f9 003f 05f0 bcbd
000000c0: 9899 c9bd fd63 8b3f

linear_relu_stack.2.weight f4 [30, 50]
0.5033853 -0.026453808 0.19529344 0.07527575 -0.039061002 -0.041551694 0.10585064 -0.13076758
-0.21240205 -0.02367887 0.17036052 -0.23802562 0.7662735 0.031900782 -0.16877562 -0.23785798
0.07507381 -0.059064444 0.018364307 -0.13276663 0.06523238 0.06883553 -0.0057611614 -0.25694266
-0.028989043 0.05824979 -0.10854434 -0.08349902 0.1501738 0.6191912 -0.033664566 -0.17805928
-1.0248878 0.37696573 -0.39485526 -0.5361913 0.17371877 -0.17070398 -0.017621936 -0.51271254
-0.14196864 -0.05911771 0.1164198 0.18955979 -0.003282978 -0.3585159 0.42014733 -0.17842078
-0.38083327 0.014600067 0.38036296 0.07598787 0.30378783 -0.18724844 -0.21342401 0.08439455
-0.004857003 -0.11495971 -0.11144459 -0.20049964 0.19907288 -0.20213936 0.6275527 0.02200589
-0.24688531 -0.35782844 0.076474935 0.068918824 -0.07703881 0.036497105 -0.06717818 0.047812887
-0.078322984 -0.18713127 0.22074085 0.14940996 -0.14683522 -0.23444943 0.34391016 0.6222536
-0.092751525 -0.24045177 -1.0195472 0.41558358 -0.33591914 -0.635804 0.115715615 -0.17953007
0.09832342 -0.44582087 -0.04099452 -0.020570366 -0.094592944 0.223696 -0.116273955 -0.27280906
0.488675 -0.06399721 -0.26745695 -0.022769855 0.3345739 -0.03969972 0.26433304 -0.0071441843
-0.21825223 -0.08531977 -0.11384903 0.07488371 -0.28159934 -0.0038276073 0.22072998 -0.102954395
0.7290879 -0.14093597 -0.22957624 -0.2790567 -0.13373867 0.12246085 -0.025831584 -0.14931647
-0.0017979846 0.008405549 0.06362861 -0.22024041 0.17826793 0.10980922 -0.07323116 -0.17661995
0.28047222 0.45433104 -0.03639053 -0.15873642 -1.0444411 0.5338683 -0.32988894 -0.6738871
0.12939318 -0.13437448 -0.07727535 -0.5383297 -0.12839383 0.035975773 0.07317133 0.24063879
0.008256198 -0.3128125 0.5693522 -0.21501386 -0.15801442 -0.15822583 0.4350447 0.02591094
0.24965616 -0.033393525 -0.004928542 -0.07285941 0.0779038 -0.08516974 -0.34584963 -0.12483994
0.2276255 -0.14476998 0.7093159 -0.11547502 -0.095970705 -0.16845351 0.055546887 0.022068577
0.009252197 -0.07663792 0.0303092 0.051696863 -0.0901986 -0.022045529 0.11647303 0.07161308
0.016237238 -0.002705586 0.3116581 0.54406315 -0.07116372 -0.2648772 -1.1420307 0.44501543
-0.36958638 -0.53710407 0.15754336 -0.17187151 0.020379456 -0.4778825 -0.055662166 -0.12197899
-0.03403906 0.1127431 -0.1819471 -0.27723044 0.47969425 -0.20782202 -0.20747218 -0.007832425
0.53248036 0.033819053 0.06069421 -0.1355059 -0.17134091 -0.08610383 -0.077101946 -0.18260661
-0.2539072 -0.108558804 0.16977738 -0.15104029 0.7778767 0.11221294 -0.07427365 -0.30419168
0.10033598 -0.0063873907 0.118591644 -0.22002807 -0.04452985 0.09778499 -0.0021577384 -0.07949524
0.17721465 0.14376754 -0.062108986 -0.14564234 0.28042227 0.3982414 -0.20554651 -0.28915513
-1.1346271 0.58330387 -0.31610492 -0.6739483 0.015731849 0.013527667 -0.09206214 -0.40948826
-0.029764647 0.031697087 0.076845914 0.2057272 -0.1710473 -0.11923453 0.39885527 -0.041939914
-0.1548133 -0.029565504 -0.09116427 -0.11057161 0.044317503 -0.103241354 0.3254224 0.11287289
00000000: dcdd 003f a8b5 d8bc 01fb 473e 2c2a 9a3d
00000010: 6efe 1fbd 1c32 2abd 38c8 d83d f0e7 05be
00000020: ec7f 59be 31fa c1bc fd72 2e3e fdbc 73be
00000030: 802a 443f 65aa 023d 84d3 2cbe 0b91 73be
00000040: 4cc0 993d 8fed 71bd be70 963c faf3 07be
00000050: 8e98 853d a4f9 8c3d 20c8 bcbb fd8d 83be
00000060: 6e7a edbc 5597 6e3d 7f4c debd 8901 abbd
00000070: 29c7 193e 5183 1e3f dbe3 09bd 2c55 36be
00000080: 862f 83bf a701 c13e 782a cabe d543 09bf
00000090: 55e3 313e 06cd 2ebe e15b 90bc 2141 03bf
000000a0: 3a60 11be 6925 72bd 816d ee3d f61b 423e
000000b0: 3b27 57bb 658f b7be 8d1d d73e f0b3 36be
000000c0: 94fc c2be 1f35 6f3c efbe c23e 879f 9b3d
000000d0: 148a 9b3e 0ebe 3fbe d38b 5abe 0dd7 ac3d
000000e0: 7f27 9fbb ff6f ebbd 103d e4bd c74f 4dbe
000000f0: c3d9 4b3e 9ffd 4ebe 4ba7 203f b245 b43c
00000100: 81cf 7cbe 4a35 b7be e49e 9c3d 5025 8d3d
00000110: 86c6 9dbd fd7d 153d b794 89bd 72d7 433d
00000120: cd67 a0bd 579f 3fbe e409 623e edfe 183e
00000130: f95b 16be 8313 70be fe14 b03e 034c 1f3f
00000140: 83f4 bdbd fd38 76be 8680 82bf 5fc7 d43e
00000150: 98fd abbe 0dc4 22bf 4ffc ec3d bbd6 37be
00000160: ca5d c93d a242 e4be dfe9 27bd 2f83 a8bc
00000170: f2b9 c1bd 9010 653e 0a21 eebd a1ad 8bbe
00000180: 9c33 fa3e f810 83bd 1ef0 88be d987 babc
00000190: 454d ab3e 2c9c 22bd a956 873e c319 eabb
000001a0: 837d 5fbe 22bc aebd ae29 e9bd a15c 993d
000001b0: ca2d 90be 98d8 7abb 0a07 623e c1d9 d2bd
000001c0: 81a5 3a3f 8551 10be 0916 6bbe 85e0 8ebe
000001d0: caf2 08be c1cc fa3d c29c d3bc 6be6 18be
000001e0: 5aaa ebba 6eb7 093c b74f 823d b486 61be
000001f0: de8b 363e a8e3 e03d 38fa 95bd dcdb 34be
00000200: 0e9a 8f3e 149e e83e 3d0e 15bd cd8b 22be
00000210: 3fb0 85bf 98ab 083f 34e7 a8be dd83 2cbf
00000220: a57f 043e 7799 09be 8a42 9ebd facf 09bf
00000230: ac79 03be 555b 133d dada 953d 046a 763e
00000240: 0145 073c f628 a0be 11c1 113f 982c 5cbe
00000250: 88ce 21be f405 22be 2ebe de3e 2e43 d43c
00000260: dda5 7f3e a6c7 08bd 9b7f a1bb 5037 95bd
00000270: 078c 9f3d 796d aebd 3413 b1be 15ac ffbd
00000280: a916 693e 953e 14be ba95 353f 2b7e ecbd
00000290: 4a8c c4bd 147f 2cbe 2285 633d 29c9 b43c
000002a0: 8796 173c 58f4 9cbd 004b f83c 17c0 533d
000002b0: 0bba b8bd d398 b4bc 6989 ee3d e1a9 923d
000002c0: f503 853c 3350 31bb a791 9f3e b947 0b3f
000002d0: 49be 91bd fc9d 87be 102e 92bf 10d9 e33e
000002e0: 6d3a bdbe a77f 09bf 0c53 213e 16ff 2fbe
000002f0: d1f2 a63c 04ad f4be 03fe 63bd 1fd0 f9bd
00000300: 8b6c 0bbd dbe5 e63d 5750 3abe 26f1 8dbe
00000310: 7c9a f53e 4ccf 54be 9673 54be 9253 00bc
00000320: a250 083f d985 0a3d 7e9a 783d 0fc2 0abe
00000330: fe73 2fbe 3457 b0bd a0e7 9dbd 3afd 3abe
00000340: 2000 82be 1454 debd 1fda 2d3e 4eaa 1abe
00000350: ed22 473f e6cf e53d c91c 98bd 03bf 9bbe
00000360: f37c cd3d 514d d1bb 2de0 f23d 0a4f 61be
00000370: ef64 36bd 7f43 c83d d868 0dbb 66ce a2bd
00000380: c277 353e cc37 133e fe65 7ebd 4423 15be
00000390: 8293 8f3e 4ce6 cb3e c97a 52be 240c 94be
000003a0: 763b 91bf 6753 153f 81d8 a1be e087 2cbf
000003b0: 14e0 803c 26a3 5d3c 138b bcbd 72a8 d1be
000003c0: fdd4 f3bc ced4 013d 6461 9d3d 27aa 523e
000003d0: 0627 2fbe 3c31 f4bd c236 cc3e 30c9 2bbd
000003e0: 6187 1ebe 5b33 f2bc 55b4 babd 5e73 e2bd
000003f0: 4586 353d 3470 d3bd c49d a63e e729 e73d

linear_relu_stack.2.bias f4 [30]
0.2701193 0.22991179 0.29838094 0.17449 0.26753473 0.12512986 0.11180524 0.15720144
0.04372393 0.19308624 0.19888295 0.16598056 0.30995592 0.23067105 0.30623052 0.09567573
0.16352566 0.24528281 0.32511812 0.23562914 0.24526298 0.22187193 0.1700847 0.29115948
0.27177724 0.21788388 0.57036465 0.47698912 0.47919247 0.5619055
00000000: 144d 8a3e ff6d 6b3e 63c5 983e 82ad 323e
00000010: 50fa 883e 0b22 003e 25fa e43d 6af9 203e
00000020: dd17 333d 66b8 453e f9a7 4b3e cff6 293e
00000030: 8bb2 9e3e 0835 6c3e 3fca 9c3e a3f1 c33d
00000040: 4573 273e 6b2b 7b3e e275 a63e c448 713e
00000050: 3826 7b3e 6532 633e af2a 2e3e db12 953e
00000060: 6326 8b3e f41c 5f3e 6b03 123f eb37 f43e
00000070: b758 f53e 0ad9 0f3f
